…
qqp (validation) results: Accuracy: 0.9110, F1 score: 0.8796

Evaluating model on dataset cola
Evaluating split validation
cola (validation) results: Matthews correlation: 0.5907

Evaluating model on dataset mnli
Evaluating split validation_matched
mnli (validation_matched) results: Accuracy: 0.8490
Evaluating split validation_mismatched
mnli (validation_mismatched) results: Accuracy: 0.8476

Evaluating model on dataset stsb
Evaluating split validation
stsb (validation) results: Pearson correlation: 0.8964, Spearman correlation: 0.8920

BertForSequenceClassification(
  (bert): BertModel(
    (embeddings): BertEmbeddings(
      (word_embeddings): Embedding(30522, 768, padding_idx=0)
      (position_embeddings): Embedding(512, 768)
      (token_type_embeddings): Embedding(2, 768)
      (LayerNorm): LayerNorm((768,), eps=1e-12, elementwise_affine=True)
      (dropout): Dropout(p=0.1, inplace=False)
    )
    (encoder): BertEncoder(
      (layer): ModuleList(
        (0-11): 12 x BertLayer(
          (attention): BertAttention(
            (self): BertSdpaSelfAttention(
              (query): Linear(in_features=768, out_features=768, bias=True)
              (key): Linear(in_features=768, out_features=768, bias=True)
              (value): Linear(in_features=768, out_features=768, bias=True)
              (dropout): Dropout(p=0.1, inplace=False)
            )
            (output): BertSelfOutput(
              (dense): Linear(in_features=768, out_features=768, bias=True)
              (LayerNorm): LayerNorm((768,), eps=1e-12, elementwise_affine=True)
              (dropout): Dropout(p=0.1, inplace=False)
            )
          )
          (intermediate): BertIntermediate(
            (dense): Linear(in_features=768, out_features=3072, bias=True)
            (intermediate_act_fn): GELUActivation()
          )
          (output): BertOutput(
            (dense): Linear(in_features=3072, out_features=768, bias=True)
            (LayerNorm): LayerNorm((768,), eps=1e-12, elementwise_affine=True)
            (dropout): Dropout(p=0.1, inplace=False)
          )
        )
      )
    )
    (pooler): BertPooler(
      (dense): Linear(in_features=768, out_features=768, bias=True)
      (activation): Tanh()
    )
  )
  (dropout): Dropout(p=0.1, inplace=False)
  (classifier): Linear(in_features=768, out_features=2, bias=True)
)

prone

Evaluating model on dataset sst2
Evaluating split validation
sst2 (validation) results: Accuracy: 0.9266

Evaluating model on dataset qnli
Evaluating split validation
qnli (validation) results: Accuracy: 0.9064

Evaluating model on dataset rte
Evaluating split validation
rte (validation) results: Accuracy: 0.6782

Evaluating model on dataset mrpc
…
